mnist_net.pth (torch, 197842 bytes, 12 tensors)

conv1.weight f4 [6, 1, 5, 5]
-0.18031359 -0.17902379 -0.10429824 0.17855972 -0.088644736 -0.26638284 -0.08488676 -0.21834357
0.04809903 -0.22189285 0.22105324 0.13410877 -0.10880604 -0.08539248 0.12768802 -0.08070264
0.17149605 0.26256943 0.24350443 0.16988146 0.15969777 0.108254954 -0.007957924 -0.10641715
-0.021930344 0.08635149 0.29918012 0.24870531 0.14586295 -0.025034316 0.31236464 0.32103607
0.3060277 0.2614668 0.028814154 -0.46464399 -0.07519707 0.18020585 0.39766708 0.43756166
-0.50519294 -0.44572175 -0.17384245 -0.22824183 0.09365671 -0.15589546 -0.32989407 -0.46278095
-0.42665672 -0.3159403 0.1336976 0.16971603 0.19512028 0.07280286 -0.2456614 0.14188763
0.1950733 -0.11067898 -0.3624791 -0.11338276 0.21151197 0.29448754 -0.239477 -0.1536535
-0.31282917 -0.05308249 0.18388698 -0.052382946 -0.072869875 -0.14064592 -0.000103787 0.047381043
-0.0578241 -0.12317215 -0.010464393 -0.08770263 -0.14199845 0.20904388 0.24187149 -0.16460437
-0.16634837 -0.024629021 -0.010151444 0.31949094 0.12639365 -0.41689515 -0.40218276 0.05746348
0.4466879 0.2964021 -0.4387905 -0.029578844 0.32931128 0.35582396 0.076516464 0.039632197
0.061309263 0.354949 -0.060943928 0.014321912 0.28960222 0.06787411 -0.033683725 -0.28960747
-0.18511255 -0.2749894 -0.39901793 -0.41749758 -0.25798586 0.09772519 -0.24476062 -0.35067323
-0.17625877 0.3282567 0.18607113 0.2126032 0.30758515 0.2557645 0.27821833 0.009365463
0.28577706 0.106832065 0.25714028 -0.22763392 -0.06881659 0.25134256 0.08326496 -0.14298148
-0.29927897 -0.19767037 0.11287668 -0.051427625 0.14936143 0.26256654 -0.010955121 0.12356888
0.1396324 0.09691053 0.29371035 -0.14995408 0.087910496 0.026640937 -0.20228726 0.047445115
0.02403675 0.15932697 -0.034231577 0.13662943 0.25805163 -0.14194217
00000000: 20a4 38be 0352 37be 519a d5bd 5cd8 363e
00000010: 5f8b b5bd 5563 88be 1cd9 adbd 7595 5fbe
00000020: 7d03 453d e137 63be c85b 623e cf53 093e
00000030: b3d5 debd 41e2 aebd a6c0 023e 6d47 a5bd
00000040: a99c 2f3e 806f 863e 3a59 793e 68f5 2d3e
00000050: d087 233e c6b4 dd3d f461 02bc 3cf1 d9bd
00000060: 44a7 b3bc 0dd9 b03d 232e 993e 9bac 7e3e
00000070: 195d 153e c414 cdbc 42ee 9f3e d75e a43e
00000080: aaaf 9c3e fade 853e a90b ec3c d1e5 edbe
00000090: ec00 9abd e287 383e 059b cb3e 1508 e03e
000000a0: 5354 01bf a435 e4be c103 32be 3ab8 69be
000000b0: 17cf bf3d 0fa3 1fbe e0e7 a8be a0f1 ecbe
000000c0: c072 dabe edc2 a1be 06e8 083e 0aca 2d3e
000000d0: 9ccd 473e aa19 953d a98e 7bbe fe4a 113e
000000e0: 4cc1 473e a9ab e2bd dc96 b9be 3835 e8bd
000000f0: 9896 583e 12c7 963e 7539 75be 5857 1dbe
00000100: 252b a0be 066d 59bd de4c 3c3e 808f 56bd
00000110: cd3c 95bd 7c05 10be 39a8 d9b8 a012 423d
00000120: f7d8 6cbd ae41 fcbd d872 2bbc 709d b3bd
00000130: 0b68 11be 990f 563e 29ad 773e 0c8e 28be
00000140: 3a57 2abe cdc2 c9bc 3e52 26bc 5194 a33e
00000150: 566d 013e 4873 d5be e6ea cdbe d35e 6b3d
00000160: 47b4 e43e 04c2 973e 26a9 e0be 554f f2bc
00000170: 7d9b a83e 8f2e b63e aab4 9c3d 5f55 223d
00000180: 6c1f 7b3d e0bb b53e 57a0 79bd 74a6 6a3c
00000190: be46 943e 9501 8b3d f2f7 09bd 6e47 94be
000001a0: 258e 3dbe 69cb 8cbe 144c ccbe 3ec2 d5be
000001b0: b916 84be 2524 c83d 87a2 7abe 718b b3be
000001c0: 2e7d 34be 4311 a83e 6e89 3e3e a7b4 593e
000001d0: cd7b 9d3e 91f3 823e a272 8e3e 9971 193c
000001e0: 5f51 923e c5ca da3d e4a7 833e de18 69be
000001f0: b6ef 8cbd f9af 803e d286 aa3d bd69 12be
00000200: 183b 99be 1a6a 4abe e42b e73d c6a5 52bd
00000210: 34f2 183e 1f6f 863e 1c7d 33bc ae11 fd3d
00000220: ccfb 0e3e 0779 c63d 3461 963e 908d 19be
00000230: 6b0a b43d 183e da3c 6424 4fbe cf55 423d
00000240: b8e8 c43c 9c26 233e 6936 0cbd 96e8 0b3e
00000250: 581f 843e 4a59 11be

conv1.bias f4 [6]
-0.024915984 0.034019012 -0.032354023 -0.14748509 -0.018367259 -0.18483505
00000000: 9b1c ccbc 8557 0b3d a785 04bd 5506 17be
00000010: ef76 96bc 6645 3dbe

conv2.weight f4 [16, 6, 5, 5]
0.026764698 0.07020318 -0.007299654 0.08231079 -0.01690111 -0.0486108 0.010449114 0.07031033
0.052664973 -0.03871884 -0.088810146 -0.06577174 -0.032610327 -0.115656905 -0.00551528 -0.0063982275
-0.07508825 -0.057213202 -0.052047744 0.031552907 0.036945403 0.06917852 -0.016729891 -0.04840745
-0.056098778 -0.024816511 0.027473358 -0.06312581 -0.08027861 0.04316033 0.03970411 0.16391942
0.23808835 0.14992985 0.07544116 0.07593549 0.12890817 0.090147085 0.07710932 -0.14066777
-0.07565745 -0.1845174 -0.1656183 -0.14390725 -0.13598081 0.062702045 0.005379538 -0.12660588
-0.011988805 0.0024281426 0.012461037 0.037234303 -0.08301454 -0.038232733 0.011633956 0.037736893
-0.02770615 0.07738367 0.061615255 0.114959925 0.04441525 0.011145065 0.021887796 0.11745878
0.07784796 -0.050670262 -0.09334951 -0.06757575 -0.030637251 -0.11475632 0.0118627455 0.041650843
0.024536803 -0.009536384 -0.055490855 -0.1346143 -0.057812046 0.21397987 0.28449956 0.11252093
-0.16319363 -0.10610949 0.03523712 0.03646538 -0.27387488 -0.21186444 -0.2748413 -0.117110536
-0.32786384 -0.14635225 -0.14003666 -0.18789887 -0.27430218 -0.15305583 -0.022758055 0.06935908
-0.026005652 -0.023658743 0.004692875 0.014200134 0.019021655 0.06765238 0.08760725 0.08864357
0.052909873 -0.14379369 0.06815359 0.13720897 0.10853278 -0.15803964 -0.14774093 -0.17983751
0.029907186 0.05990373 0.1091207 0.050869882 -0.03225735 0.10390462 0.06851138 0.116347104
0.022581954 0.0774566 0.013050928 0.039880462 -0.023307689 -0.05173388 0.05438317 -0.06395279
0.023306487 -0.0070251455 0.0008977484 -0.09227628 0.027085472 -0.059396196 -0.03874624 -0.06196443
-0.08434293 -0.03990719 -0.16008328 -0.17384931 -0.021347996 -0.06229429 -0.1772841 -0.103509106
-0.023951972 0.079871394 0.0809281 -0.07009964 -0.049900897 -0.0009504855 0.038432524 0.07560205
-0.036916595 -0.006530251 -0.13012116 0.07149254 0.028526274 0.079839334 0.09918523 -0.006343477
-0.017548965 -0.009610279 0.013930484 0.20008704 0.08380563 0.053031586 0.012480325 0.039639894
-0.10162518 -0.12624633 -0.037137367 0.020292306 -0.15597415 -0.07579589 0.038288526 -0.07410291
-0.09128588 0.048254494 0.082914285 -0.036054112 0.05243098 0.13283709 0.1067625 -0.077645294
-0.06204942 -0.03159208 -0.037224725 -0.063885935 -0.1442426 -0.033143554 -0.14190656 -0.08691363
-0.16707152 -0.097048745 0.18414344 -0.01484861 -0.0122078555 0.11116662 0.06334821 -0.036570385
-0.044086717 0.039217122 0.0063931793 0.05589249 0.010665871 0.00075029425 -0.030218562 -0.026980542
-0.032251447 -0.059055567 0.04430627 -0.050020434 -0.12321088 -0.04756906 -0.0038523548 0.0017496791
-0.05369989 -0.08984189 0.06905788 -0.076247424 -0.083099194 0.09487662 0.15526502 -0.012475578
-0.05929009 -0.05104642 -0.10072019 0.0035828194 -0.011498428 -0.17573257 0.016312238 -0.0033725149
-0.11067452 -0.0069353096 -0.024817867 -0.06947355 -0.12337561 0.11736773 0.16635412 -0.028519846
-0.11368281 0.23794675 0.15864636 -0.027796168 -0.06322752 0.06290434 -0.057212997 -0.23487727
-0.13959716 -0.0695832 -0.032337543 -0.055000715 0.1181369 -0.082389064 -0.1409429 -0.056965858
00000000: a441 db3c afc6 8f3d f031 efbb 8f92 a83d
00000010: 3274 8abc 1e1c 47bd c332 2b3c ddfe 8f3d
00000020: 3ab7 573d a597 1ebd 18e2 b5bd 56b3 86bd
00000030: 6892 05bd 87dd ecbd 86b9 b4bb 39a8 d1bb
00000040: dec7 99bd 6458 6abd 0430 55bd 9f3d 013d
00000050: 1054 173d 78ad 8d3d 200d 89bc e446 46bd
00000060: d5c7 65bd ff4b cbbc cf0f e13c 1b48 81bd
00000070: 1d69 a4bd e3c8 303d c7a0 223d 7eda 273e
00000080: 6fcd 733e 3687 193e e580 9a3d 1184 9b3d
00000090: 8100 043e 099f b83d 7eeb 9d3d 360b 10be
000000a0: 4bf2 9abd 21f2 3cbe d897 29be 6c5c 13be
000000b0: 8e3e 0bbe ee69 803d d646 b03b f9a4 01be
000000c0: b16c 44bc 7921 1f3b 6129 4c3c ff82 183d
000000d0: 8703 aabd ed99 1cbd 599c 3e3c 0092 1a3d
000000e0: 02f8 e2bc 547b 9e3d 4760 7c3d 1c70 eb3d
000000f0: c4ec 353d ca99 363c 094e b33c 3b8e f03d
00000100: c06e 9f3d 9f8b 4fbd 072e bfbd 2865 8abd
00000110: f9fa fabc 5d05 ebbd f65b 423c 139a 2a3d
00000120: 6801 c93c 7e3e 1cbc 614a 63bd 55d8 09be
00000130: 53cc 6cbd 8a1d 5b3e eda9 913e 6071 e63d
00000140: 3b1c 27be ef4f d9bd cc54 103d b95c 153d
00000150: 5439 8cbe fef2 58be 00b8 8cbe a6d7 efbd
00000160: c5dd a7be 5ddd 15be c565 0fbe 9068 40be
00000170: 5671 8cbe abba 1cbe 1a6f babc 220c 8e3d
00000180: ce09 d5bc fbcf c1bc b0c6 993b aea7 683c
00000190: 4dd3 9b3c 558d 8a3d 6e6b b33d c38a b53d
000001a0: 06b8 583d a73e 13be 1c94 8b3d 8280 0c3e
000001b0: 6f46 de3d 25d5 21be 6649 17be 5327 38be
000001c0: eaff f43c 9d5d 753d ac7a df3d f05c 503d
000001d0: 4820 04bd f2cb d43d b24f 8c3d 6447 ee3d
000001e0: cafd b83c 91a1 9e3d 8fd3 553c b259 233d
000001f0: c4ef bebc e8e6 53bd e3c0 5e3d aef9 82bd
00000200: 3fed be3c 3133 e6bb e056 6b3a 59fb bcbd
00000210: 5ae2 dd3c 6d49 73bd 61b4 1ebd 6ace 7dbd
00000220: fcbb acbd b975 23bd dfec 23be 8e05 32be
00000230: fee1 aebc 4c28 7fbd f789 35be 95fc d3bd
00000240: ed36 c4bc 9d93 a33d a2bd a53d 6690 8fbd
00000250: e264 4cbd 012a 79ba 6c6b 1d3d 3fd5 9a3d
00000260: db35 17bd b7fb d5bb 7b3e 05be ae6a 923d
00000270: efaf e93c ce82 a33d a021 cb3d f1dc cfbb
00000280: d9c2 8fbc 6f74 1dbc af3c 643c 9ee3 4c3e
00000290: 49a2 ab3d a637 593d 477a 4c3c 715d 223d
000002a0: dd20 d0bd b846 01be 5a1d 18bd 0d3c a63c
000002b0: b0b7 1fbe e03a 9bbd 6ed4 1c3d 44c3 97bd
000002c0: 17f4 babd 81a6 453d f7ce a93d 7aad 13bd
000002d0: dec1 563d 7206 083e 4ca6 da3d 7f04 9fbd
000002e0: 8827 7ebd b266 01bd f478 18bd a1d6 82bd
000002f0: 55b4 13be 89c1 07bd f44f 11be c6ff b1bd
00000300: cc14 2bbe 7ec1 c6bd 1990 3c3e 9647 73bc
00000310: 7503 48bc 53ab e33d b5bc 813d d4ca 15bd
00000320: 4694 34bd 22a2 203d e07d d13b 86ef 643d
00000330: e8bf 2e3c 65af 443a eb8c f7bc 4c06 ddbc
00000340: 181a 04bd 40e4 71bd 7e7a 353d 3ae2 4cbd
00000350: fc55 fcbd c6d7 42bd ca77 7cbb 7d55 e53a
00000360: 6af4 5bbd 06ff b7bd 386e 8d3d 9c27 9cbd
00000370: e92f aabd ac4e c23d cbfd 1e3e 5e66 4cbc
00000380: 2ada 72bd 0d16 51bd 6346 cebd bccd 6a3b
00000390: e763 3cbc 3df3 33be 3ea1 853c 6905 5dbb
000003a0: 53a9 e2bd 9841 e3bb d74e cbbc 2648 8ebd
000003b0: 5aac fcbd 7e5e f03d bc58 2a3e 74a2 e9bc
000003c0: 88d2 e8bd 50a8 733e 3174 223e cab4 e3bc
000003d0: 6e7d 81bd fed3 803d 2d58 6abd ab83 70be
000003e0: 8ff2 0ebe a381 8ebd 5f74 04bd 6e48 61bd
000003f0: c2f1 f13d 99bb a8bd 5653 10be 0855 69bd

conv2.bias f4 [16]
-0.0062215193 -0.029755672 0.07115834 0.099953376 -0.03165178 -0.07533364 -0.0015276327 0.030574884
0.0049773008 -0.05333811 -0.08896192 -0.070678025 0.08800476 -0.09987288 -0.042086896 0.08567818
00000000: e3dd cbbb 2bc2 f3bc 77bb 913d 5bb4 cc3d
00000010: 4ca5 01bd 8648 9abd d93a c8ba 2e78 fa3c
00000020: a018 a33b 1079 5abd ab31 b6bd a4bf 90bd
00000030: d73b b43d 278a ccbd 4f63 2cbd 0b78 af3d

conv3.weight f4 [10, 16, 5, 5]
-0.014674507 -0.035117723 0.024656069 -0.045684755 -0.0239756 0.045628887 -0.03995656 -0.022489442
-0.0017751567 -0.025729043 0.022654396 0.025009539 -0.037118703 0.004965104 0.03351328 -0.030924672
0.019760173 -0.021944327 -0.011642385 0.047731403 0.00069429725 -0.021881456 0.0019808598 -0.015981067
0.011542816 -0.045960266 -0.040038235 -0.017255861 -0.009454858 0.031479966 0.033383552 0.008198928
0.03183833 0.005137801 -0.037899505 0.049424592 0.0269281 -0.011315681 -0.04195098 0.018663686
-0.03834232 -0.010004111 -0.0034187362 0.020501535 -0.040858157 0.010080002 -0.011473171 -0.042384762
0.026101205 0.023791682 -0.031085432 0.040193494 0.021903839 0.04573753 -0.04841553 -0.042863823
0.004665047 -0.0020729601 0.037604284 0.02335227 -0.026969671 0.03168596 -0.016699068 0.04386204
-0.02113141 0.03935985 -0.02131241 -0.04474762 0.019540284 0.019183185 -0.025875205 -0.02584464
0.028745044 0.007839769 -0.044378754 -0.020966852 0.0057515427 -0.04463605 0.021281946 0.048024792
0.036356684 -0.008443505 0.044696998 -0.0042649508 -0.04583351 -0.036736995 -0.02907679 -0.038774867
0.028391507 -0.038701594 -0.032561198 0.027624864 -0.02243461 0.047295313 -0.011642605 -0.03915254
0.00084946677 0.0050093755 0.009725142 0.026596535 -0.016132563 0.012668278 0.0022444427 0.007486753
0.043978605 0.031531755 0.002478201 -0.043514837 0.018216405 0.037021954 0.04840455 -0.030144816
0.00577135 0.022361372 0.009371936 0.018859308 0.0010910816 0.005296897 0.041024867 0.018561888
0.032630008 -0.044574168 0.014530715 0.024455752 -0.014054142 -0.010789879 -0.028578503 -0.046470333
-0.044550963 0.014948677 -0.04847113 -0.04903951 0.03753407 0.040391896 -0.03773726 0.01746444
-0.007461183 -0.029339535 -0.049911894 0.04119045 -0.040688653 0.040045854 0.011726178 0.02255812
-0.011829358 -7.748604e-06 0.017969351 0.0024641752 0.006535083 -0.04948048 0.018574301 0.003175009
-0.013094924 -0.0065925904 -0.015091769 -0.03621754 -0.03452214 -0.029372418 0.031123113 -0.008242898
-0.037155278 0.0063358024 0.005798191 0.010804664 -0.0436332 0.0025012605 -0.024732029 -0.016546201
-0.008970998 0.0031653754 0.048882443 0.04053286 0.013760034 -0.010175157 -0.018796999 -0.047570474
0.04390234 -0.033258893 -0.048946887 0.020921085 0.015812296 0.021288712 0.00067342445 -0.02294544
0.040119853 0.010385472 0.012952115 -0.009469606 -0.04869627 -0.01633652 0.03943797 0.019539077
0.01566932 0.006371688 0.041357893 0.012324799 -0.026327282 -0.033106722 -0.021463675 0.032394078
0.048864786 0.016180921 0.04581246 0.018822137 0.045866985 0.0063745603 0.030890632 -0.042854726
0.023832317 -0.037289012 -0.033199996 -0.039743148 -0.020305848 0.04830474 -0.008275043 -0.031356916
0.024126295 0.03932396 -0.0052862465 -0.01722435 -0.005867798 -0.014416408 -0.0016450398 -0.0354308
-0.017663062 0.031476546 0.04668129 -0.032999992 -0.03919389 0.022055369 -0.040700696 0.04033192
0.018047277 0.000682611 0.048962343 0.04145084 0.03676183 -0.019571567 -0.038795512 0.046997737
-0.004137475 -0.04206305 0.039901476 -0.049253684 -0.007607758 0.0246622 0.041717384 0.016613942
-0.04506538 0.014721114 -0.0053950436 -0.025055801 -0.024141312 -0.042863425 -0.008851029 0.033046458
00000000: 586d 70bc 9ad7 0fbd 86fb c93c f01f 3bbd
00000010: 7a68 c4bc 5be5 3a3d 7da9 23bd c73b b8bc
00000020: 60ac e8ba b7c5 d2bc b695 b93c cee0 cc3c
00000030: c809 18bd 50b2 a23b 3945 093d bd55 fdbc
00000040: 16e0 a13c 97c4 b3bc b4bf 3ebc 0182 433d
00000050: 8001 363a bd40 b3bc 50d1 013b baea 82bc
00000060: 141e 3d3c d540 3cbd 22ff 23bd 2a5c 8dbc
00000070: 8ce8 1abc 23f1 003d 31bd 083d cc54 063c
00000080: e968 023d 005b a83b 833c 1bbd 7171 4a3d
00000090: 5298 dc3c 6865 39bc cad4 2bbd 96e4 983c
000000a0: d60c 1dbd 48e8 23bc e00c 60bb d6f2 a73c
000000b0: e25a 27bd 9826 253c f8f9 3bbc a59b 2dbd
000000c0: 32d2 d53c c6e6 c23c e0a6 febc efa1 243d
000000d0: ae6f b33c 4757 3b3d 5d4f 46bd fa91 2fbd
000000e0: 40dd 983b 80da 07bb f306 1a3d 424d bf3c
000000f0: 80ef dcbc 23c9 013d 7ccc 88bc afa8 333d
00000100: c71b adbc cb37 213d 5d97 aebc 4849 37bd
00000110: f212 a03c 0e26 9d3c 3df8 d3bc 23b8 d3bc
00000120: ba7a eb3c 6072 003c 7fc6 35bd adc2 abbc
00000130: 7077 bc3b 4ad4 36bd 7a57 ae3c a5b5 443d
00000140: bfea 143d a056 0abc 3314 373d 00c1 8bbb
00000150: ebbb 3bbd 8879 16bd 7332 eebc 65d2 1ebd
00000160: 4e95 e83c 9085 1ebd e45e 05bd 8a4d e23c
00000170: cac8 b7bc bbb8 413d a0c0 3ebc 6a5e 20bd
00000180: c0ae 5e3a b025 a43b 3456 1f3c fae0 d93c
00000190: 7028 84bc 9c8e 4f3c 8017 133b 7053 f53b
000001a0: e922 343d 7127 013d 5069 223b 9d3c 32bd
000001b0: 923a 953c 55a4 173d d943 463d 43f2 f6bc
000001c0: 981d bd3b 322f b73c c08c 193c d67e 9a3c
000001d0: a002 8f3a 9891 ad3b b109 283d 1a0f 983c
000001e0: 0ba7 053d 6793 36bd 3c12 6e3c 6e57 c83c
000001f0: 5843 66bc 08c8 30bc 771d eabc ad57 3ebd
00000200: 127b 36bd 4ceb 743c aa89 46bd a7dd 48bd
00000210: 53bd 193d f971 253d 6392 1abd 9611 8f3c
00000220: f07c f4bb 7759 f0bc 6a70 4cbd 51b7 283d
00000230: 25a9 26bd 1f07 243d 281f 403c cecb b83c
00000240: eccf 41bc 0000 02b7 7634 933c 007e 213b
00000250: 4024 d63b 0bac 4abd 2229 983c d013 503b
00000260: 188c 56bc a806 d8bb 7843 77bc d858 14bd
00000270: 1667 0dbd 6d9e f0bc e6f5 fe3c 380d 07bc
00000280: 2230 18bd 909c cf3b c0fe bd3b 0c06 313c
00000290: bab8 32bd 30ec 233b d39a cabc e68b 87bc
000002a0: 18fb 12bc 3072 4f3b f538 483d c905 263d
000002b0: c471 613c b4b5 26bc 2afc 99bc 42d9 42bd
000002c0: f1d2 333d 7a3a 08bd 887c 48bd b262 ab3c
000002d0: ca88 813c aa65 ae3c c088 303a 13f8 bbbc
000002e0: b754 243d d427 2a3c 1c35 543c 6826 1bbc
000002f0: bd75 47bd 2ad4 85bc b589 213d 6a10 a03c
00000300: f25c 803c 98c9 d03b e566 293d f4ed 493c
00000310: 50ac d7bc ea9a 07bd 97d4 afbc a7af 043d
00000320: 7126 483d da8d 843c d9a5 3b3d e230 9a3c
00000330: 05df 3b3d b0e1 d03b 5a0e fd3c 7088 2fbd
00000340: fe3b c33c 5dbc 18bd b8fc 07bd b6c9 22bd
00000350: 7358 a6bc 31db 453d 0c94 07bc 1c70 00bd
00000360: 82a4 c53c 2912 213d 4038 adbb 141a 8dbc
00000370: a846 c0bb cc32 6cbc 609e d7ba e31f 11bd
00000380: 20b2 90bc 8ded 003d e134 3f3d 002b 07bd
00000390: c689 20bd 76ad b43c c6b5 26bd 1533 253d
000003a0: e2d7 933c 40f1 323a bd8c 483d 5bc8 293d
000003b0: 9393 163d 8d54 a0bc 0be8 1ebd b380 403d
000003c0: a893 87bb 4e4a 2cbd bb6f 233d 3bbe 49bd
000003d0: 804a f9bb 6208 ca3c d9df 2a3d f619 883c
000003e0: 7a96 38bd d430 713c e8c8 b0bb d341 cdbc
000003f0: 00c4 c5bc 8f91 2fbd e803 11bc b95b 073d

conv3.bias f4 [10]
0.03798602 -0.013322808 0.03033388 0.010423172 0.027012441 -0.04637571 -0.038041573 0.019783136
0.047231298 0.040165637
00000000: 3b97 1b3d e847 5abc c27e f83c f4c5 2a3c
00000010: 3249 dd3c 75f4 3dbd 7bd1 1bbd 3e10 a23c
00000020: 9b75 413d b984 243d

fc1.weight f4 [120, 256]
-0.028990578 -0.002753718 0.08235458 -0.0023987577 -0.009888852 0.015595134 -0.00055281055 0.09714064
-0.02570427 -0.02155652 0.0437739 -0.017264655 -0.043450575 0.04525699 -0.007039883 -0.062689945
-0.048585724 -0.07074039 0.044370424 0.07159246 0.002140609 0.10348152 -0.063494235 -0.097322404
-0.0049927896 0.057098813 0.011495041 -0.041571345 0.020476585 0.109666705 0.038812168 0.019807393
0.014036951 -0.0023614294 -0.007991757 -0.02229022 0.004422119 -0.057922564 0.041988485 0.007635258
0.10197189 0.04618455 0.026579175 -0.0033113714 0.044559926 -0.06705645 0.01807146 0.018017704
-0.016949126 -0.019574467 -0.017828677 0.02857614 -0.05769188 -0.015084801 -0.024560854 0.044445798
0.013912715 0.080532014 -0.049469803 -0.10684599 0.05832163 0.06877277 0.093353316 -0.042823978
0.03197835 0.027487053 -0.031734075 0.060190428 -0.051385723 -0.054797307 -0.06261768 0.014181859
-0.04958384 -0.002703998 -0.0017170778 0.040005468 0.017287396 0.059980974 0.05796145 0.076947644
0.061541356 -0.055905435 -0.14587128 -0.15109535 0.027011644 0.029445576 -0.020693658 0.05496148
0.040494896 0.07630881 0.1143107 0.1411116 0.0057149646 -0.02568845 -0.048030354 -0.085090145
0.03639642 0.08973966 0.10281576 -0.04260507 0.059256207 0.052682146 0.032799896 0.0023994083
-0.0060954215 0.0034858698 0.012477968 0.05267123 0.0012435508 -0.095968634 0.035841577 -0.018687384
-0.036343616 -0.0932908 0.0057245824 0.02513328 0.008848942 0.040467363 0.09086045 0.045486737
-0.013329768 -0.04524478 -0.066612236 -0.005071482 0.0420892 0.047789607 0.003861366 -0.07131725
-0.043618817 -0.007499564 0.060985334 -0.015251992 0.043398038 -0.030470094 -0.039584406 -0.014044335
0.022787755 0.00033821727 0.14251833 0.045975097 -0.003582515 -0.0025420915 0.040218826 0.01129484
0.08229613 -0.06937516 -0.106131576 0.05453152 -0.06909582 -0.0350578 0.0073243016 0.054262456
-0.018467117 -0.035142325 -0.041062303 -0.07356252 0.027819019 -0.07734755 -0.014695116 -0.09397611
0.021597702 -0.077294216 -0.04046188 0.05511615 0.0117410505 -0.0423101 0.014174868 0.07272508
-0.042635605 0.0018374687 0.008033954 -0.14234096 -0.0063480404 0.01883677 0.06523136 0.1424343
-0.011433034 -0.072881036 0.019485729 0.114362866 0.03646528 -0.06717334 -0.03361559 0.014436745
0.030117117 0.028242499 -0.019464163 -0.005794831 0.0721936 0.038600747 -0.0034720153 -0.093708985
0.0034610378 0.0052217506 -0.049178362 0.0672007 -0.040701356 -0.007267687 0.0056184405 -0.028531633
0.009397688 -0.018545529 0.05057286 -0.011964912 0.018114254 -0.054793824 0.039219398 -0.030159427
-0.026492558 -0.06991701 -0.103121124 -0.09433734 -0.03809253 -0.034648687 0.061880287 0.013202643
0.026939739 0.063603014 0.068059154 0.047653895 0.06340493 0.038585193 -0.09524843 -0.02164859
0.025905473 -0.04550954 -0.05067598 0.022606505 -0.037802838 0.041146614 -0.0637541 0.024968524
0.084206894 0.054235585 0.005054204 0.037200697 0.07643195 -0.018740442 0.0055731996 -0.046766683
-0.1461961 0.063100725 0.13680628 -0.02440459 -0.042523723 -0.008454939 -0.029556766 -0.04962286
-0.03171442 0.084716246 -0.042724907 -0.012037478 0.0018574382 -0.01370108 -0.004270408 0.02548991
00000000: a67d edbc b977 34bb 85a9 a83d 7a34 1dbb
00000010: da04 22bc bc82 7f3c 7dea 10ba acf1 c63d
00000020: c391 d2bc 4d97 b0bc 434c 333d 9b6e 8dbc
00000030: 3bf9 31bd 655f 393d d2ae e6bb 9663 80bd
00000040: d301 47bd 56e0 90bd c3bd 353d 119f 923d
00000050: 7649 0c3b 1fee d33d 4409 82bd f850 c7bd
00000060: 8e9a a3bb 72e0 693d b255 3c3c b746 2abd
00000070: 83be a73c f098 e03d 82f9 1e3d 1d43 a23c
00000080: 3dfb 653c 36c2 1abb dcef 02bc fb99 b6bc
00000090: 6ce7 903b 3640 6dbd 1efc 2b3d 3031 fa3b
000000a0: a3d6 d03d 032c 3d3d 92bc d93c 9803 59bb
000000b0: 7884 363d e454 89bd 990a 943c dd99 933c
000000c0: e5d8 8abc a25a a0bc 720d 92bc 8218 ea3c
000000d0: 524e 6cbd 3e26 77bc d833 c9bc cc0c 363d
000000e0: 28f2 633c f8ed a43d d9a0 4abd 12d2 dabd
000000f0: a9e2 6e3d bdd8 8c3d 0630 bf3d 3268 2fbd
00000100: bbfb 023d 872c e13c 97fb 01bd 3d8a 763d
00000110: d679 52bd 2473 60bd b33d 80bd 075b 683c
00000120: 6d18 4bbd 8f35 31bb 920f e1ba c6dc 233d
00000130: 4c9e 8d3c 9cae 753d fc68 6d3d ba96 9d3d
00000140: ca12 7c3d 19fd 64bd 485f 15be bdb8 1abe
00000150: 8647 dd3c d937 f13c bf85 a9bc 4a1f 613d
00000160: fadd 253d cb47 9c3d ba1b ea3d 8f7f 103e
00000170: 9944 bb3b 9670 d2bc 7abb 44bd be43 aebd
00000180: 6a14 153d 6dc9 b73d 1291 d23d a782 2ebd
00000190: a3b6 723d 3cc9 573d 2f59 063d 643f 1d3b
000001a0: 1abc c7bb 3173 643b 6470 4c3c cabd 573d
000001b0: a4fe a23a 348b c4bd 9ece 123d 4916 99bc
000001c0: 0bdd 14bd 3f0f bfbd 4795 bb3b 4fe4 cd3c
000001d0: 27fb 103c 1bc1 253d 0b15 ba3d 4d50 3a3d
000001e0: 1965 5abc 9752 39bd ff6b 88bd ad2e a6bb
000001f0: ba65 2c3d 09bf 433d f90e 7d3b c70e 92bd
00000200: a5a9 32bd e7be f5bb c2cb 793d 7ee3 79bc
00000210: 24c2 313d 6b9c f9bc 4223 22bd 361a 66bc
00000220: 63ad ba3c c152 b139 53f0 113e 6250 3c3d
00000230: a1c8 6abb 3899 26bb 7fbc 243d fe0d 393c
00000240: e08a a83d 9014 8ebd 835b d9bd 715c 5f3d
00000250: 1c82 8dbd c598 0fbd b200 f03b 4f42 5e3d
00000260: 5a48 97bc 66f1 0fbd f230 28bd f2a7 96bd
00000270: b6e4 e33c 6468 9ebd c9c3 70bc 8c76 c0bd
00000280: aaed b03c 6e4c 9ebd 5bbb 25bd 79c1 613d
00000290: 895d 403c 5b4d 2dbd b53d 683c e3f0 943d
000002a0: aca2 2ebd 38d7 f03a d8a0 033c d4c1 11be
000002b0: 3903 d0bb 924f 9a3c 0598 853d 4cda 113e
000002c0: 9f51 3bbc a742 95bd 89a0 9f3c 1437 ea3d
000002d0: 9e5c 153d 2d92 89bd 80b0 09bd 1988 6c3c
000002e0: 2cb8 f63c d05c e73c 4f73 9fbc 91e2 bdbb
000002f0: 3dda 933d d11b 1e3d c08a 63bb 7fea bfbd
00000300: 94d2 623b 381b ab3b 406f 49bd 85a0 893d
00000310: 77b6 26bd c725 eebb e51a b83b 2cbb e9bc
00000320: c3f8 193c cbec 97bc 7d25 4f3d 7a08 44bc
00000330: 5864 943c 7d6f 60bd 85a4 203d e710 f7bc
00000340: ec06 d9bc a630 8fbd 2b31 d3bd ef33 c1bd
00000350: ea06 1cbd c8eb 0dbd 2f76 7d3d e64f 583c
00000360: bab0 dc3c 4c42 823d 9962 8b3d bb30 433d
00000370: 72da 813d 820b 1e3d 9c11 c3bd 6258 b1bc
00000380: b737 d43c 3668 3abd 9e91 4fbd 4731 b93c
00000390: 26d7 1abd 5a89 283d 8291 82bd ca8a cc3c
000003a0: aa74 ac3d 2226 5e3d bc9d a53b c25f 183d
000003b0: 5b88 9c3d 8e85 99bc 639f b63b 6c8e 3fbd
000003c0: 6eb4 15be f43a 813d f216 0c3e 22ec c7bc
000003d0: 5b2d 2ebd 9686 0abc 0821 f2bc 5741 4bbd
000003e0: fbe6 01bd b67f ad3d 5000 2fbd d838 45bc
000003f0: 4975 f33a 7f7a 60bc c7ee 8bbb 37d0 d03c

fc1.bias f4 [120]
-0.040311754 -0.067531966 0.03836769 -0.02501857 -0.044582967 -0.01943481 0.011981445 -0.029702352
-0.04215269 -0.007896173 0.014364738 -0.0026721768 0.05449954 -0.011397675 -0.009379487 -0.046200074
-0.042216614 -0.056008823 0.049275745 -0.037605103 0.03498001 0.0065272828 0.057179756 0.034161802
-0.04926682 -0.026071891 0.039729998 0.04641806 0.051250935 0.06636355 -0.057563696 0.042102285
0.029646331 -0.0103186695 0.06906904 0.01854834 0.023145124 -0.05171879 0.026496805 0.020496495
-0.039123025 -0.042258274 0.061486397 0.026156133 -0.0077966964 -0.029960549 -0.0032037052 -0.016086504
-0.00691153 0.024548393 0.0024555633 0.051373355 0.041411273 -0.026424246 0.046441376 0.042835448
0.052753184 -0.0028217258 -0.047623478 -0.06214277 -0.0044345097 0.055400077 0.046960324 0.048364498
-0.061904766 -0.043540075 -0.028367516 -0.060006052 0.0411243 -0.017265532 0.0551041 0.013203782
-0.048290968 0.0047154594 -0.057792902 0.038457252 0.027727444 -0.020277873 0.009938559 -0.023467155
0.039907407 0.0047851014 -0.032549545 -0.023274645 0.013965439 0.017149456 0.049704473 -0.04056502
0.047919158 -0.04856269 0.0002721254 -0.020712817 0.00736717 -0.001285462 0.028845897 0.020829044
-0.036932275 -0.045373686 0.024472166 -0.0032522308 -0.010570242 0.053382955 -0.042875603 -0.06524987
0.022230642 -0.03320721 0.020481344 0.02791727 0.027542649 -0.062166598 0.041235402 0.039661426
-0.016418526 0.0062221177 -0.051171567 0.05590398 -0.026947541 -0.046021756 0.009940699 -0.022779623
00000000: f01d 25bd 334e 8abd 7027 1d3d bef3 ccbc
00000010: a19c 36bd c035 9fbc d34d 443c 5952 f3bc
00000020: 4da8 2cbd f35e 01bc 145a 6b3c b01f 2fbb
00000030: e93a 5f3d 50bd 3abc 6bac 19bc 4a3c 3dbd
00000040: 54eb 2cbd 8269 65bd 5dd5 493d cf07 1abd
00000050: 3347 0f3d d1e2 d53b 5235 6a3d 3fed 0b3d
00000060: 01cc 49bd b894 d5bc ecbb 223d dd20 3e3d
00000070: 80ec 513d 9de9 873d e9c7 6bbd 7273 2c3d
00000080: dddc f23c a30f 29bc 1274 8d3d b0f2 973c
00000090: d89a bd3c 15d7 53bd d40f d93c 44e8 a73c
000000a0: 773f 20bd 0317 2dbd 29d9 7b3d 6345 d63c
000000b0: 6e7b ffbb d36f f5bc 41f5 51bb d8c7 83bc
000000c0: 1e7a e2bb b619 c93c 84ed 203b de6c 523d
000000d0: de9e 293d a977 d8bc 5039 3e3d 3974 2f3d
000000e0: b913 583d b4ec 38bb d610 43bd 6b89 7ebd
000000f0: 5d4f 91bb 31eb 623d 7859 403d da19 463d
00000100: da8f 7dbd 1457 32bd fe62 e8bc e8c8 75bd
00000110: f471 283d 7270 8dbc d6b4 613d ad54 583c
00000120: c0cc 45bd 2484 9a3b 40b8 6cbd 5a85 1d3d
00000130: aa24 e33c c81d a6bc 56d5 223c 313e c0bc
00000140: f375 233d 57cc 9c3b ac52 05bd 78aa bebc
00000150: 4ccf 643c 047d 8c3c eb96 4b3d 8227 26bd
00000160: e146 443d ace9 46bd 0eac 8e39 edad a9bc
00000170: 4d68 f13b f37c a8ba 3b4e ec3c aca1 aa3c
00000180: 4c46 17bd c2d9 39bd da79 c83c 6123 55bb
00000190: cf2e 2dbc 16a8 5a3d 549e 2fbd b9a1 85bd
000001a0: 091d b63c 4904 08bd 7ec8 a73c c2b2 e43c
000001b0: 1fa1 e13c 67a2 7ebd 74e6 283d 0574 223d
000001c0: 2580 86bc e8e2 cb3b 4799 51bd 92fb 643d
000001d0: 17c1 dcbc 4f81 3cbd 50de 223c 559c babc

fc2.weight f4 [84, 120]
0.030316131 -0.017423121 -0.15411349 0.057838343 0.12040952 0.015861232 -0.014774739 0.044338282
0.00027778058 -0.05829034 0.007524748 -0.03885511 -0.04629042 -0.024855366 0.14994933 -0.008486391
0.046128176 -0.0056089284 0.041733813 0.007581537 0.026904125 -0.063437976 0.048141826 0.045608222
-0.0023999724 0.08892048 -0.0024938278 -0.03829845 -0.08540492 -0.0058705728 -0.1293966 -0.0349775
-0.09423961 0.020690957 0.020801181 -0.073699236 0.042821757 -0.00980367 0.041567873 -0.100497946
-0.006352102 -0.017428456 0.022041135 0.12438444 -0.12150562 -0.046785414 0.08392027 0.09499012
0.056852534 -0.05279667 0.04121519 -0.04653626 0.036783542 0.069892205 0.08712281 -0.009558738
-0.07578334 -0.06433602 -0.059608717 -0.073195495 0.09102891 -0.0942137 0.077690125 0.06557741
-0.0033442923 0.006922603 0.009284449 0.03198023 -0.065503 -0.05136448 0.04134526 0.028158693
-0.021727972 -0.15297651 -0.00998692 -0.022939397 -0.08326756 0.07654721 0.05199763 0.11362213
0.03287043 -0.0323003 0.046351504 -0.003391676 -0.111113645 0.013337516 -0.06344441 -0.005923867
0.063420594 -0.04701996 0.05440674 0.09570341 -0.03143687 0.10600387 0.023833698 0.12506361
0.020886764 -0.04332583 0.04068168 -0.026319705 0.055858456 -0.08226281 0.1475724 -0.12471771
-0.09240039 0.07337901 0.047727086 -0.08156188 0.024226313 -0.00251618 -0.08089099 -0.05227222
-0.12027939 0.04770332 0.070765555 -0.12839851 -0.02437952 -0.044955216 -0.04795808 0.02398557
-0.0059975954 0.04351138 0.073043674 -0.025331857 0.032484706 -0.06647938 -0.03443378 -0.061178356
-0.075291306 0.011296373 -0.013310979 0.087465584 -0.03893039 -0.10788375 -0.015708288 0.033454247
0.03344311 0.01848714 0.074013144 -0.034128867 -0.033310514 -0.16238998 -0.02363673 0.015523827
-0.062235948 -0.052603956 0.0661657 -0.0024870075 0.1172948 -0.084061876 0.04206864 0.079964824
-0.0019796332 -0.08335523 0.0280633 0.08212241 0.09964584 -0.0237934 -0.0027591817 -0.07961094
0.10563 0.045372054 -0.0045613195 -0.043259364 -0.13928647 -0.04496496 0.005533901 -0.026236178
0.030124536 -0.09131822 0.00208005 0.08735654 0.061730936 0.015895385 0.06645975 -0.08106364
-0.049570333 -0.052560903 0.030201217 -0.016764496 0.10326877 -0.041499656 -0.061008163 0.05445851
-0.06205786 -0.103926644 -0.089562014 0.026682956 -0.02363086 -0.03978573 0.011806012 0.04824801
-0.010582071 0.13181043 -0.042999864 0.023649704 0.10828418 0.039167654 0.046997387 0.104525074
0.0075381896 -0.029602474 -0.038225506 -0.14272846 -0.041398577 0.03939649 -0.11528237 -0.0035963042
0.0016091941 0.013424764 -0.033522423 -0.0065264744 0.08164821 0.04400949 0.027297745 0.047612738
0.05496934 -0.04443953 -0.03290159 0.056247722 -0.040664937 0.07577969 0.1285801 -0.008006686
-0.008235732 0.021160647 0.030086664 -0.0598719 -0.04167997 -0.08268816 0.03868997 -0.07210283
-0.033916116 0.019852068 0.03128171 -0.0022984217 -0.01094549 0.09694063 -0.011935387 -0.069152646
0.028833505 0.0007424215 -0.02192466 -0.006043364 -0.051348556 0.0033978699 0.016308244 0.045343984
0.004759417 0.013230593 0.07890002 -0.0605587 0.079489805 0.029023992 -0.03877824 0.06466994
00000000: 8959 f83c efba 8ebc edcf 1dbe e6e7 6c3d
00000010: 4499 f63d 6aef 813c bf11 72bc 0f9c 353d
00000020: 14a3 9139 dac1 6ebd 2992 f63b 8926 1fbd
00000030: 069b 3dbd 7b9d cbbc 518c 193e 810a 0bbc
00000040: e6f0 3c3d 1acb b7bb 13f1 2a3d 8b6e f83b
00000050: 0a66 dc3c c5eb 81bd 5d30 453d b0cf 3a3d
00000060: db48 1dbb f11b b63d 7d6f 23bb d6de 1cbd
00000070: c6e8 aebd ef5d c0bb 8b80 04be 9144 0fbd
00000080: b200 c1bd 1580 a93c 3d67 aa3c a0ef 96bd
00000090: de65 2f3d 939f 20bc 1343 2a3d ded1 cdbd
000000a0: 4b25 d0bb 1fc6 8ebc 9c8f b43c 45bd fe3d
000000b0: f0d7 f8bd 10a2 3fbd 64de ab3d 2e8a c23d
000000c0: 34de 683d 5241 58bd 42d1 283d ce9c 3ebd
000000d0: 57aa 163d a523 8f3d 726d b23d 419c 1cbc
000000e0: 4c34 9bbd 9ac2 83bd 4528 74bd 85e7 95bd
000000f0: 5d6d ba3d 1df3 c0bd 001c 9f3d 734d 863d
00000100: ea2b 5bbb 01d7 e23b cd1d 183c b4fd 023d
00000110: 7026 86bd 9063 52bd a659 293d 0fad e63c
00000120: dcfe b1bc e0a5 1cbe 2ea0 23bc 67eb bbbc
00000130: 2f88 aabd c9c4 9c3d 78fb 543d b8b2 e83d
00000140: 25a3 063d 524d 04bd 13db 3d3d e146 5ebb
00000150: 8d8f e3bd 9985 5a3c 25ef 81bd 001d c2bb
00000160: a8e2 813d 0098 40bd 9ad9 5e3d 2600 c43d
00000170: f3c3 00bd 8f18 d93d e33e c33c ad10 003e
00000180: b81a ab3c 6d76 31bd d5a1 263d 6c9c d7bc
00000190: d6cb 643d 6779 a8bd 381d 173e 006c ffbd
000001a0: 6a3c bdbd bc47 963d 7a7d 433d ea09 a7bd
000001b0: 4376 c63c 7fe6 24bb 2daa a5bd 651b 56bd
000001c0: 0a55 f6bd 8e64 433d 88ed 903d e67a 03be
000001d0: 8fb7 c7bc f622 38bd b16f 44bd 637d c43c
000001e0: 7a87 c4bb fd38 323d ec97 953d c184 cfbc
000001f0: af0e 053d 5726 88bd 6f0a 0dbd 2896 7abd
00000200: 5432 9abd 6c14 393c 4b16 5abc 2821 b33d
00000210: 7975 1fbd 28f2 dcbd abae 80bc 5207 093d
00000220: a4fb 083d 5872 973c 3494 973d b6ca 0bbd
00000230: 9b70 08bd 8f49 26be d1a1 c1bc a657 7e3c
00000240: 1feb 7ebd 3f77 57bd e281 873d 10fd 22bb
00000250: 4238 f03d a228 acbd 2b50 2c3d 99c4 a33d
00000260: bcbc 01bb 26b6 aabd 01e5 e53c cb2f a83d
00000270: 1e13 cc3d 60ea c2bc 63d3 34bb 0f0b a3bd
00000280: 8b54 d83d 0cd8 393d 1f77 95bb bb30 31bd
00000290: 1da1 0ebe 2e2d 38bd ba55 b53b 41ed d6bc
000002a0: bbc7 f63c 0c05 bbbd 7351 083b fce7 b23d
000002b0: 94d9 7c3d 0a37 823c 0d1c 883d b204 a6bd
000002c0: 430a 4bbd 1a4a 57bd 8b68 f73c b255 89bc
000002d0: 947e d33d 8bfb 29bd b2e3 79bd e30f 5f3d
000002e0: 6230 7ebd 7ed7 d4bd 4a6c b7bd 3796 da3c
000002f0: 8195 c1bc 5df6 22bd 016e 413c b59f 453d
00000300: 6c60 2dbc 50f9 063e a020 30bd 06bd c13c
00000310: 19c4 dd3d 436e 203d 5580 403d 3e11 d63d
00000320: eb02 f73b e380 f2bc 5992 1cbd 6927 12be
00000330: 8e91 29bd 375e 213d 2a19 ecbd f9af 6bbb
00000340: 98eb d23a 8bf3 5b3c cf4e 09bd 09dc d5bb
00000350: 2d37 a73d 4c43 343d 859f df3c 9305 433d
00000360: 8827 613d 3906 36bd d1c3 06bd 0364 663d
00000370: 4790 26bd 6232 9b3d 80aa 033e 7a2e 03bc
00000380: 2aef 06bc 1859 ad3c 4f78 f63c 3d3c 75bd
00000390: 9eb8 2abd 6958 a9bd 6079 1e3d a6aa 93bd
000003a0: a0eb 0abd cea0 a23c 4021 003d 1ea1 16bb
000003b0: b654 33bc cf88 c63d a48c 43bc e79f 8dbd
000003c0: 3e34 ec3c 109f 423a 589b b3bc 6907 c6bb
000003d0: dd52 52bd ccae 5e3b de98 853c 9dba 393d
000003e0: e2f4 9b3b 21c5 583c 5596 a13d 660c 78bd
000003f0: 8dcb a23d b9c3 ed3c efd5 1ebd ac71 843d

fc2.bias f4 [84]
0.03223065 -0.049094327 -0.08549384 0.052469295 -0.07032456 -0.029890256 0.07680117 -0.026987202
-0.057121087 0.0377744 0.002084601 0.10409099 -0.04922591 -0.026816346 -0.0281913 0.07987422
0.08423207 -0.03606995 0.0047935555 -0.008755839 -0.094945796 0.06901269 0.043734577 -0.08394969
-0.040669464 -0.025342114 0.072391085 0.0035539398 0.058802065 -0.031101903 0.061720762 0.059379127
0.07555221 -0.10347778 0.051326387 -0.06814727 -0.07066323 0.082188055 -0.07597173 0.07486226
-0.022240305 -0.0951737 -0.03907203 0.03620622 0.059377704 0.09372509 -0.06576782 0.033294026
-0.08338863 0.063582934 0.046820085 -0.08593484 0.07346026 -0.0064753937 -0.07016485 -0.010224358
0.026796563 0.12418507 -0.003934197 -0.036951654 0.0563975 -0.040483817 0.031927206 0.049886804
0.018423384 -0.06859239 0.0036706983 0.020919038 0.08892677 0.061573524 0.024544211 0.016074149
-0.013947282 0.059134196 0.0004983909 -0.09673714 0.069929756 -0.0921336 -0.03256014 -0.053474683
0.07573601 -0.01941004 -0.04410965 0.039491504
00000000: 4904 043d 2217 49bd 6517 afbd 0bea 563d
00000010: 5306 90bd 69dc f4bc ef49 9d3d 4414 ddbc
00000020: cdf7 69bd 54b9 1a3d cd9d 083b a82d d53d
00000030: 1ca1 49bd f4ad dbbc 71f1 e6bc 1895 a33d
00000040: dd81 ac3d 15be 13bd 4213 9d3b a774 0fbc
00000050: f172 c2bd 8656 8d3d 0723 333d d1ed abbd
00000060: 0695 26bd 449a cfbc c741 943d 37e9 683b
00000070: 6fda 703d 6bc9 febc e9ce 7c3d 8737 733d
00000080: 1ebb 9a3d 29ec d3bd 9e3b 523d cc90 8bbd
00000090: e2b7 90bd 3652 a83d 1197 9bbd 6251 993d
000000a0: 4d31 b6bc 6eea c2bd fe09 20bd f94c 143d
000000b0: 0936 733d f1f2 bf3d 47b1 86bd 515f 083d
000000c0: a8c7 aabd c537 823d 6bc6 3f3d 9bfe afbd
000000d0: 5572 963d 8a2f d4bb 97b2 8fbd 1184 27bc
000000e0: 7784 db3c be54 fe3d 70ea 80bb 9e5a 17bd
000000f0: 1101 673d 5cd2 25bd 1ac6 023d 1b56 4c3d
00000100: a3ec 963c 2b7a 8cbd 1990 703b 675e ab3c
00000110: 3d1f b63d 8534 7c3d f110 c93c efad 833c
00000120: 2483 64bc b336 723d 72a6 023a 1f1e c6bd
00000130: 5537 8f3d 8ab0 bcbd c85d 05bd 4508 5bbd
00000140: 7b1b 9b3d ce01 9fbc 52ac 34bd d8c1 213d

fc3.weight f4 [10, 84]
0.25691602 0.1463469 -0.03275009 0.19982645 -0.07266728 0.07524031 -0.096013635 -0.03666394
-0.034481354 -0.10071772 -0.018685868 -0.23654154 -0.046100833 -0.084984414 -0.14475277 0.0060917623
-0.0017827218 0.17243424 -0.14588368 0.037079956 -0.017156372 -0.13577712 0.16008031 0.1851127
-0.05858948 -0.015172338 -0.08591584 0.13695374 -0.15193018 -0.08860491 -0.013949962 0.20015028
0.075524345 0.12230415 -0.20346427 -0.16495533 -0.09976073 -0.22668348 0.18519063 -0.07700662
-0.26679227 0.017863324 0.2177553 -0.007074764 0.112917975 -0.17350455 0.1283583 -0.21839198
0.03446497 -0.024835575 -0.05300115 0.021057429 0.04374696 -0.118027285 0.3285301 0.03336651
0.023297714 -0.00038900945 -0.06565015 -0.09452186 -0.14020227 -0.060514286 -0.2001786 -0.026963316
0.07766227 -0.085179076 -0.020429445 0.011911615 -0.32114774 -0.09306466 0.013365025 0.20208022
0.07193024 -0.06722929 0.008694273 -0.13423826 -0.126921 -0.010088834 0.04198103 -0.10576803
-0.029281419 -0.20249556 -0.0013998786 -0.06473348 -0.1962817 0.030561225 -0.03390187 -0.02704065
0.1022916 0.011501376 0.1086946 -0.037639618 -0.03547831 -0.100263916 0.0030496775 0.07429314
0.05450151 -0.07609098 -0.18570241 0.041383695 0.3513104 -0.15525426 -0.20240702 0.14057042
-0.059837997 0.2821754 -0.13113773 -0.07709176 -0.09300847 0.07618331 -0.0473914 -0.007632371
-0.042138733 0.080440566 -0.13970312 0.022177927 0.34334883 -0.112766705 0.044930104 0.0053678188
0.28746137 0.21229814 0.15904514 -0.13164574 0.16089016 -0.14393444 0.25053677 0.09984392
-0.18505394 -0.0637385 -0.082826056 -0.10711269 0.029903818 -0.21726468 0.04081707 0.11078176
0.024812402 0.05478138 -0.23888645 -0.25064328 0.078533396 -0.3181902 0.074311875 -0.0987017
-0.15390278 -0.10743956 0.21434726 0.06827824 -0.071133345 0.030121693 -0.101507224 0.2525894
0.19950171 -0.2865328 0.056372277 -0.012801132 0.14541268 0.115818545 0.13510245 0.11941298
-0.09248277 0.0078027663 -0.0041005583 0.07277611 0.023578273 -0.06683152 -9.563971e-05 -0.08219362
-0.08125589 -0.10732146 -0.04493231 0.10194554 0.0138184205 0.106536224 -0.043627523 0.028492007
0.08207732 -0.035232987 -0.10264408 0.21761253 0.053305455 -0.095314726 -0.14672539 0.044632938
-0.3023906 0.024093393 0.1807857 0.034326322 0.14546503 0.04121495 -0.063737735 0.116088115
-0.09377826 -0.017272376 -0.23009294 -0.07530495 -0.14844741 0.05815148 -0.16937639 0.15811113
-0.002820599 0.11583684 -0.2215891 0.2854616 -0.20247963 0.17001781 0.1305563 -0.057311397
-0.18959852 0.03398743 -0.20845127 -0.06523234 0.18718117 0.13533604 -0.11236196 0.096353404
-0.061783593 -0.061299205 0.0055285026 -0.0016611805 -0.038295913 0.14613914 -0.0049028764 -0.020057712
0.1755271 0.1031379 0.15157743 -0.020584261 0.009715038 -0.05304278 0.11581875 0.08662622
0.031005198 -0.09298535 -0.10067922 0.17164242 -0.3153921 -0.20531332 -0.07489744 0.13876761
0.12342682 0.31906644 -0.07879359 0.04802303 -0.042020943 0.070428684 -0.015110876 0.055231
0.071903296 -0.09394337 0.13834892 -0.2047158 0.090216145 -0.094749115 -0.07507154 0.015478187
00000000: 7f8a 833e f6db 153e f524 06bd 4e9f 4c3e
00000010: 95d2 94bd 9717 9a3d cca2 c4bd ed2c 16bd
00000020: 523c 0dbd 1845 cebd 1b13 99bc f237 72be
00000030: 3ad4 3cbd 4f0c aebd 123a 14be 689d c73b
00000040: 38aa e9ba 9a92 303e 8862 15be 27e1 173d
00000050: 858b 8cbc 2809 0bbe 18ec 233e 2f8e 3d3e
00000060: 86fb 6fbd 6695 78bc a5f4 afbd 9a3d 0c3e
00000070: 9693 1bbe 7e76 b5bd 628e 64bc 32f4 4c3e
00000080: 82ac 9a3d 997a fa3d f058 50be 0dea 28be
00000090: 5b4f ccbd b71f 68be 9da2 3d3e a6b5 9dbd
000000a0: ff98 88be 1b56 923c 3ffb 5e3e 6cd3 e7bb
000000b0: 8a41 e73d 2dab 31be 5c70 033e 26a2 5fbe
000000c0: 242b 0d3d fa73 cbbc bc17 59bd a180 ac3c
000000d0: 0330 333d 4ab8 f1bd 1935 a83e 52ab 083d
000000e0: d9da be3c f7f3 cbb9 9673 86bd ad94 c1bd
000000f0: 2f91 0fbe d4dd 77bd 9efb 4cbe 2ce2 dcbc
00000100: 650d 9f3d 5e72 aebd a75b a7bc ef28 433c
00000110: 7a6d a4be af98 bebd faf8 5a3c 1eee 4e3e
00000120: 2950 933d 83af 89bd 6d72 0e3c c175 09be
00000130: 94f7 01be a34b 25bc 4df4 2b3d e99c d8bd
00000140: 96df efbc ff5a 4fbe 227c b7ba fd92 84bd
00000150: 12fe 48be 895b fa3c b0dc 0abd 5a84 ddbc
00000160: 427e d13d 4470 3c3c 469b de3d 002c 1abd
00000170: b451 11bd 2b57 cdbd 19dd 473b 0027 983d
00000180: fa3c 5f3d 96d5 9bbd c628 3ebe f381 293d
00000190: f5de b33e f9fa 1ebe c943 4fbe b1f1 0f3e
000001a0: b018 75bd 4b79 903e f848 06be 49e2 9dbd
000001b0: 3a7b bebd ff05 9c3d 7c1d 42bd f818 fabb
000001c0: aa99 2cbd 06be a43d 560e 0fbe 7cae b53c
000001d0: 6bcb af3e 3bf2 e6bd a108 383d 87e4 af3b
000001e0: 232e 933e af64 593e bbdc 223e 24ce 06be
000001f0: 64c0 243e 8d63 13be 5b46 803e f87a cc3d
00000200: c87e 3dbe 5589 82bd b5a0 a9bd e65d dbbd
00000210: daf8 f43c a27a 5ebe cd2f 273d 8ce1 e23d
00000220: 6143 cb3c 7162 603d a69e 74be 5154 80be
00000230: 1ed6 a03d d3e9 a2be d330 983d 1e24 cabd
00000240: b198 1dbe 4609 dcbd d97d 5b3e 76d5 8b3d
00000250: 5cae 91bd c5c1 f63c 05e3 cfbd 6653 813e
00000260: 2d4a 4c3e 6db4 92be 9ee6 663d d7bb 51bc
00000270: 10e7 143e 4632 ed3d 4c58 0a3e cb8e f43d
00000280: 9b67 bdbd 59ae ff3b fa5d 86bb a40b 953d
00000290: 3927 c13c f7de 88bd 2e92 c8b8 2155 a8bd
000002a0: 7d69 a6bd 5bcb dbbd f10a 38bd d3c8 d03d
000002b0: a866 623c aa2f da3d c6b2 32bd 1268 e93c
000002c0: 2718 a83d 7750 10bd 0f37 d2bd d2d5 5e3e
000002d0: d256 5a3d 5e34 c3bd 2e3f 16be 07d1 363d
000002e0: f1d2 9abe 825f c53c e31f 393e c299 0c3d
000002f0: c9f4 143e 02d1 283d ee88 82bd 9bbf ed3d
00000300: d10e c0bd cc7e 8dbc 7c9d 6bbe 7b39 9abd
00000310: 9902 18be 3f30 6e3d 0171 2dbe e2e7 213e
00000320: ccd9 38bb dd3b ed3d 41e8 62be 0628 923e
00000330: d256 4fbe 2619 2e3e 8db0 053e 5bbf 6abd
00000340: 1d26 42be 6736 0b3d 4074 55be 8898 85bd
00000350: 6cac 3f3e 8895 0a3e 071e e6bd ef54 c53d
00000360: cb10 7dbd e014 7bbd 7128 b53b f8bb d9ba
00000370: 2ddc 1cbd 80a5 153e 4fa8 a0bb 1250 a4bc
00000380: 60bd 333e f739 d33d 1d37 1b3e 53a0 a8bc
00000390: d32b 1f3c 6343 59bd 6132 ed3d 1669 b13d
000003a0: 9dfe fd3c 1a6f bebd e830 cebd 08c3 2f3e
000003b0: 137b a1be a83d 52be d463 99bd 1919 0e3e
000003c0: 33c7 fc3d ad5c a33e 895e a1bd ccb3 443d
000003d0: 271e 2cbd ea3c 903d 9c93 77bc e739 623d
000003e0: 0942 933d 6265 c0bd 57ab 0d3e 05a1 51be
000003f0: 3ec3 b83d d30b c2bd 1cbf 99bd 3998 7d3c

fc3.bias f4 [10]
0.031862836 0.09376805 0.023878954 -0.046491604 -0.08953189 0.14285688 -0.003669858 0.03387595
0.13724771 0.12510307
00000000: 9b82 023d 7709 c03d cc9d c33c fb6d 3ebd
00000010: 7f5c b7bd 1349 123e 0082 70bb 82c1 0a3d
00000020: aa8a 0c3e 051b 003e
